Training Network2
_________________________________________________________________
Layer (type)                 Output Shape              Param #   
=================================================================
conv2d_1 (Conv2D)            (None, 26, 26, 32)        320       
_________________________________________________________________
conv2d_2 (Conv2D)            (None, 24, 24, 32)        9248      
_________________________________________________________________
conv2d_3 (Conv2D)            (None, 22, 22, 64)        18496     
_________________________________________________________________
conv2d_4 (Conv2D)            (None, 20, 20, 64)        36928     
_________________________________________________________________
max_pooling2d_1 (MaxPooling2 (None, 10, 10, 64)        0         
_________________________________________________________________
conv2d_5 (Conv2D)            (None, 8, 8, 32)          18464     
_________________________________________________________________
conv2d_6 (Conv2D)            (None, 6, 6, 32)          9248      
_________________________________________________________________
conv2d_7 (Conv2D)            (None, 4, 4, 64)          18496     
_________________________________________________________________
conv2d_8 (Conv2D)            (None, 2, 2, 64)          36928     
_________________________________________________________________
max_pooling2d_2 (MaxPooling2 (None, 1, 1, 64)          0         
_________________________________________________________________
flatten_1 (Flatten)          (None, 64)                0         
_________________________________________________________________
dense_1 (Dense)              (None, 256)               16640     
_________________________________________________________________
dropout_1 (Dropout)          (None, 256)               0         
_________________________________________________________________
dense_2 (Dense)              (None, 10)                2570      
=================================================================
Total params: 167,338
Trainable params: 167,338
Non-trainable params: 0
_________________________________________________________________
Epoch 1/10

   1/1875 [..............................] - ETA: 15:26 - loss: 2.2955 - acc: 0.1562
   2/1875 [..............................] - ETA: 9:26 - loss: 3.0226 - acc: 0.1406 
   3/1875 [..............................] - ETA: 7:25 - loss: 2.9745 - acc: 0.1354
…
